…
   "outputs": [],
   "source": [
    "generator = build_generator()"
   ]
  },
  {
   "cell_type": "code",
   "execution_count": 128,
   "id": "b4ae3120-c0d3-42d0-9c52-658d01e607fa",
   "metadata": {
    "tags": []
   },
   "outputs": [
    {
     "name": "stdout",
     "output_type": "stream",
     "text": [
      "Model: \"sequential_4\"\n",
      "_________________________________________________________________\n",
      " Layer (type)                Output Shape              Param #   \n",
      "=================================================================\n",
      " dense_4 (Dense)             (None, 6272)              1611904   \n",
      "                                                                 \n",
      " leaky_re_lu_18 (LeakyReLU)  (None, 6272)              0         \n",
      "                                                                 \n",
      " reshape_2 (Reshape)         (None, 7, 7, 128)         0         \n",
      "                                                                 \n",
      " up_sampling2d_4 (UpSamplin  (None, 14, 14, 128)       0         \n",
      " g2D)                                                            \n",
      "                                                                 \n",
      " conv2d_18 (Conv2D)          (None, 14, 14, 128)       409728    \n",
      "                                                                 \n",
      " leaky_re_lu_19 (LeakyReLU)  (None, 14, 14, 128)       0         \n",
      "                                                                 \n",
      " up_sampling2d_5 (UpSamplin  (None, 28, 28, 128)       0         \n",
      " g2D)                                                            \n",
      "                                                                 \n",
      " conv2d_19 (Conv2D)          (None, 28, 28, 128)       409728    \n",
      "                                                                 \n",
      " leaky_re_lu_20 (LeakyReLU)  (None, 28, 28, 128)       0         \n",
      "                                                                 \n",
      " up_sampling2d_6 (UpSamplin  (None, 56, 56, 128)       0         \n",
      " g2D)                                                            \n",
      "                                                                 \n",
      " conv2d_20 (Conv2D)          (None, 56, 56, 128)       409728    \n",
      "                                                                 \n",
      " leaky_re_lu_21 (LeakyReLU)  (None, 56, 56, 128)       0         \n",
      "                                                                 \n",
      " conv2d_21 (Conv2D)          (None, 56, 56, 128)       262272    \n",
      "                                                                 \n",
      " leaky_re_lu_22 (LeakyReLU)  (None, 56, 56, 128)       0         \n",
      "                                                                 \n",
      " conv2d_22 (Conv2D)          (None, 56, 56, 128)       262272    \n",
      "                                                                 \n",
      " leaky_re_lu_23 (LeakyReLU)  (None, 56, 56, 128)       0         \n",
      "                                                                 \n",
      " conv2d_23 (Conv2D)          (None, 56, 56, 1)         2049      \n",
      "                                                                 \n",
      "=================================================================\n",
      "Total params: 3367681 (12.85 MB)\n",
      "Trainable params: 3367681 (12.85 MB)\n",
      "Non-trainable params: 0 (0.00 Byte)\n",
      "_________________________________________________________________\n"
     ]
    }
   ],
   "source": [
…
   "source": [
    "discriminator = build_discriminator()"
   ]
  },
  {
   "cell_type": "code",
   "execution_count": 140,
   "id": "6410363a-7e52-4b77-894c-e4854c444e0a",
   "metadata": {
    "tags": []
   },
   "outputs": [
    {
     "name": "stdout",
     "output_type": "stream",
     "text": [
      "Model: \"sequential_6\"\n",
      "_________________________________________________________________\n",
      " Layer (type)                Output Shape              Param #   \n",
      "=================================================================\n",
      " conv2d_28 (Conv2D)          (None, 52, 52, 32)        832       \n",
      "                                                                 \n",
      " leaky_re_lu_28 (LeakyReLU)  (None, 52, 52, 32)        0         \n",
      "                                                                 \n",
      " dropout_15 (Dropout)        (None, 52, 52, 32)        0         \n",
      "                                                                 \n",
      " conv2d_29 (Conv2D)          (None, 48, 48, 64)        51264     \n",
      "                                                                 \n",
      " leaky_re_lu_29 (LeakyReLU)  (None, 48, 48, 64)        0         \n",
      "                                                                 \n",
      " dropout_16 (Dropout)        (None, 48, 48, 64)        0         \n",
      "                                                                 \n",
      " conv2d_30 (Conv2D)          (None, 44, 44, 128)       204928    \n",
      "                                                                 \n",
      " leaky_re_lu_30 (LeakyReLU)  (None, 44, 44, 128)       0         \n",
      "                                                                 \n",
      " dropout_17 (Dropout)        (None, 44, 44, 128)       0         \n",
      "                                                                 \n",
      " conv2d_31 (Conv2D)          (None, 40, 40, 256)       819456    \n",
      "                                                                 \n",
      " leaky_re_lu_31 (LeakyReLU)  (None, 40, 40, 256)       0         \n",
      "                                                                 \n",
      " dropout_18 (Dropout)        (None, 40, 40, 256)       0         \n",
      "                                                                 \n",
      " flatten_3 (Flatten)         (None, 409600)            0         \n",
      "                                                                 \n",
      " dropout_19 (Dropout)        (None, 409600)            0         \n",
      "                                                                 \n",
      " dense_6 (Dense)             (None, 1)                 409601    \n",
      "                                                                 \n",
      "=================================================================\n",
      "Total params: 1486081 (5.67 MB)\n",
      "Trainable params: 1486081 (5.67 MB)\n",
      "Non-trainable params: 0 (0.00 Byte)\n",
      "_________________________________________________________________\n"
     ]
    }
   ],
   "source": [
…
